connecting_Farmers/chatbot/data.pth (torch, 5418 bytes, 6 tensors)

l1.weight f4 [8, 54]
-0.25553602 -0.42450258 0.36044145 0.3271749 0.3584492 0.6755366 0.18145607 0.30272627
0.09202392 0.28579444 0.41502786 -0.25206736 -0.1068739 -0.49658427 -0.1871593 -0.21833025
0.2271364 0.58813244 -0.24763235 0.55591106 -0.11979737 0.5435366 0.44179094 0.29542655
0.18349293 0.24606356 -0.3721312 -0.27673858 -0.084994845 -0.23066294 0.5064053 -0.4972348
0.013608679 0.37838918 -0.23219799 -0.15593469 -0.11576613 0.2206872 0.29173473 0.20163862
0.3685994 -0.33034045 -0.19660363 -0.12583767 0.24428026 -0.16140749 -0.5597528 -0.33062854
0.022661481 -0.5142204 -0.15635414 -0.2503144 0.26397672 0.3328266 0.3503716 0.16623032
0.5477428 -0.31304023 0.23139744 0.74645144 0.62082684 0.6692352 0.46583962 0.5291053
-0.1702306 -0.37407437 0.21994065 -0.07029317 0.12095682 -0.24956729 -0.3663132 0.53268415
-0.37344852 -0.43396327 0.49829075 -0.38016555 -0.46231085 -0.87295234 0.3674532 -0.1594442
-0.008588184 0.19856462 -0.1468521 -0.0085857455 0.19623394 -0.03414849 0.25462565 0.52815765
0.30311465 -0.15216777 -0.011941271 0.32867202 0.5213114 0.43135726 0.32362688 -0.45153162
-0.23941667 0.14368668 0.5224179 0.38808817 0.66982114 0.33066276 -0.06392952 -0.3135492
-0.35740104 -0.33913854 0.56918633 0.48465297 -0.3152705 0.3868828 -0.38587728 0.27961123
0.34955624 -0.3347824 -0.22423445 -0.3774487 -0.56537706 -0.451209 0.46429977 0.4409819
0.35230199 0.65191966 0.4228341 0.44328845 0.45199233 -0.39555356 0.5966144 0.45229995
-0.09009689 0.58196574 0.52616554 0.4794881 0.09643288 0.42481855 0.7028203 0.41568816
0.2653931 0.43474975 -0.27112052 0.5623388 -0.09967933 -0.52620727 0.5311857 0.41155216
0.27187243 -0.4702733 -0.12508722 -0.12187475 -0.13640986 0.655668 0.37708437 0.44770077
-0.099191636 0.39404568 -0.33905724 -0.16399364 0.33042225 0.57724124 0.41455328 0.563522
-0.19113894 0.15792698 0.08144531 0.433689 -0.3839717 0.24969019 -0.04735081 0.8271483
0.08830007 -0.25120434 -0.31002706 -0.15234503 0.3214067 -0.3019225 -0.13022745 -0.42702878
0.23076662 -0.10444413 0.28618684 0.7883675 -0.34321964 0.49895716 -0.15053067 0.4814521
0.52619755 0.26310307 -0.039795067 0.21541987 -0.21486564 0.23525691 -0.017453058 0.24784394
0.73141456 -0.20253484 0.21753372 -0.27643406 0.285726 -0.32059532 -0.0065229256 -0.28948957
-0.123437196 0.042026352 0.65442085 -0.33703333 -0.2687467 0.21127793 -0.33458403 0.35261405
0.21126299 0.02752876 0.18510693 -0.43582112 -0.103453994 -0.33327866 -0.08233813 0.4729666
-0.09595535 0.3408856 -0.3709895 -0.27886808 -0.029212404 0.673777 -0.20079464 -0.3189996
0.030235115 -0.36344028 -0.18268114 0.45351592 0.5516736 0.47037616 0.17390496 0.19870895
-0.19222546 0.68990594 0.37989023 -0.42351082 -0.0138308 -0.4037904 -0.39625624 0.01531061
0.09184508 -0.33549798 0.52605206 0.24966036 0.27136618 0.3077841 0.47880262 0.49690196
-0.24305655 -0.1752625 0.5352955 0.04783779 0.27101034 0.03604978 0.004037186 -0.103335164
00000000: 9ed5 82be 6758 d9be c88b b83e 7883 a73e
00000010: a786 b73e f7ef 2c3f 9fcf 393e f0fe 9a3e
00000020: 0977 bc3d a653 923e 887e d43e f90e 81be
00000030: b4e0 dabd 4b40 febe b0a6 3fbe f791 5fbe
00000040: 7296 683e d98f 163f 5693 7dbe 3050 0e3f
00000050: 5358 f5bd 3725 0b3f 6c32 e23e 2642 973e
00000060: 92e5 3b3e 16f8 7b3e fb87 bebe aeb0 8dbe
00000070: c711 aebd e832 6cbe c7a3 013f 8f95 febe
00000080: f0f6 5e3c 3abc c13e 4fc5 6dbe 58ad 1fbe
00000090: cb16 edbd d3fb 613e 415e 953e 5b7a 4e3e
000000a0: 10b9 bc3e 6222 a9be 7652 49be 97db 00be
000000b0: 9b24 7a3e 0148 25be f64b 0fbf 2548 a9be
000000c0: 92a4 b93c f3a3 03bf 4d1b 20be 3629 80be
000000d0: f527 873e 4068 aa3e e863 b33e 4838 2a3e
000000e0: df38 0c3f cf46 a0be 73f3 6c3e 7117 3f3f
000000f0: 82ee 1e3f 0053 2b3f 8882 ee3e 7273 073f
00000100: ee50 2ebe ad86 bfbe 1f38 613e def5 8fbd
00000110: 36b8 f73d 918e 7fbe 678d bbbe fd5d 083f
00000120: a534 bfbe 6f30 debe f71f ff3e 0fa5 c2be
00000130: 02b4 ecbe ce79 5fbf d322 bc3e 5745 23be
00000140: 74b5 0cbc 8654 4b3e 6660 16be 3aab 0cbc
00000150: 8df1 483e 49df 0bbd 4b5e 823e 5735 073f
00000160: d831 9b3e ded1 1bbe 52a5 43bc b347 a83e
00000170: aa74 053f dcda dc3e 6cb2 a53e 272f e7be
00000180: a529 75be 9a22 133e 2ebd 053f 7eb3 c63e
00000190: 6679 2b3f a14c a93e 7bed 82bd 8589 a0be
000001a0: 45fd b6be 91a3 adbe 32b6 113f 6f24 f83e
000001b0: 236b a1be 8115 c63e b591 c5be 3429 8f3e
000001c0: 09f9 b23e 9968 abbe b79d 65be f540 c1be
000001d0: 8dbc 10bf de04 e7be b3b8 ed3e 61c8 e13e
000001e0: ed60 b43e 35e4 263f b67d d83e b4f6 e23e
000001f0: 8a6b e73e ff85 cabe b9bb 183f dc93 e73e
00000200: b884 b8bd b5fb 143f c9b2 063f 777f f53e
00000210: 9a7e c53d d181 d93e 08ec 333f 14d5 d43e
00000220: 9be1 873e 8597 de3e 4fd0 8abe 70f5 0f3f
00000230: ad24 ccbd 85b5 06bf c9fb 073f f7b6 d23e
00000240: dd32 8b3e a9c7 f0be dd16 00be 7899 f9bd
00000250: 07af 0bbe dcd9 273f 3411 c13e 0939 e53e
00000260: fc24 cbbd 5bc0 c93e e998 adbe f3ed 27be
00000270: 1b2d a93e 15c6 133f 5440 d43e fa42 103f
00000280: edb9 43be 9cb7 213e cccc a63d 7c0c de3e
00000290: f097 c4be c9ae 7f3e ecf2 41bd febf 533f
000002a0: abd6 b43d db9d 80be debb 9ebe 5600 1cbe
000002b0: 6b8f a43e 9695 9abe 585a 05be 84a3 dabe
000002c0: 164e 6c3e cee6 d5bd 1587 923e 74d2 493f
000002d0: 7cba afbe 5077 ff3e b624 1abe e480 f63e
000002e0: e2b4 063f 72b5 863e 2700 23bd 0797 5c3e
000002f0: bd05 5cbe 30e7 703e b7f9 8ebc cdca 7d3e
00000300: fc3d 3b3f 4b65 4fbe 29c1 5e3e c488 8dbe
00000310: ae4a 923e 1225 a4be 44be d5bb fa37 94be
00000320: a4cc fcbd d323 2c3d 2088 273f a28f acbe
00000330: 2b99 89be 3e59 583e 994e abbe d489 b43e
00000340: 5355 583e fe83 e13c ac8c 3d3e f223 dfbe
00000350: b0df d3bd 80a3 aabe e5a0 a8bd ae28 f23e
00000360: 3d84 c4bd 8f88 ae3e 56f2 bdbe ccc7 8ebe
00000370: da4e efbc a67c 2c3f 1c9d 4dbe ea53 a3be
00000380: a2af f73c d814 babe c410 3bbe 3d33 e83e
00000390: 7b3a 0d3f 25d5 f03e 2414 323e 5c7a 4b3e
000003a0: c0d6 44be ad9d 303f f980 c23e 69d6 d8be
000003b0: 949a 62bc 9ebd cebe 19e2 cabe 5ad9 7a3c
000003c0: 4619 bc3d 64c6 abbe 59ab 063f f7a6 7f3e
000003d0: 82f0 8a3e e195 9d3e 9e25 f53e ef69 fe3e
000003e0: d1e3 78be 0378 33be 2009 093f 8ff1 433d
000003f0: dec1 8a3e efa8 133d 5f4a 843b 63a1 d3bd

l1.bias f4 [8]
0.7062213 0.5365753 0.56585294 1.0004532 0.489537 0.70252573 0.48116675 0.7808355
00000000: ebca 343f 005d 093f bddb 103f da0e 803f
00000010: 98a4 fa3e bad8 333f 7d5b f63e d6e4 473f

l2.weight f4 [8, 8]
-0.24394132 -0.06770113 1.0862638 0.9499477 1.0067277 -0.16514736 -0.70834774 0.66667014
0.7734081 1.4468516 -0.44336092 1.413108 0.27437297 0.04870598 1.1157506 1.1869934
1.0283322 -0.7925138 0.71771294 0.48343793 -0.92789435 1.1421282 -0.9495802 0.41154093
-0.8705441 0.6103521 0.15703472 0.0110794995 -0.29171738 0.7239367 0.5822117 0.46996796
-0.63153654 0.2336465 0.5257884 -0.778757 0.9965919 1.0773295 -0.5427336 -0.6857676
-0.37154102 0.052975763 0.7227205 0.9869656 1.0352719 -0.50602114 -0.561856 0.9450932
0.1313133 -0.27090162 -0.26251644 0.079666466 -0.19579424 -0.34737515 -0.21348655 0.28705445
-0.20267367 -0.29327163 0.7098101 0.03721138 -0.94432646 1.1013206 -0.050742876 1.3515141
00000000: c1cb 79be e4a6 8abd b10a 8b3f c62f 733f
00000010: 74dc 803f 641c 29be 4756 35bf e5aa 2a3f
00000020: 13fe 453f 6f32 b93f 3400 e3be b9e0 b43f
00000030: 9d7a 8c3e ec7f 473d ead0 8e3f 66ef 973f
00000040: 64a0 833f 2fe2 4abf 09bc 373f 2d85 f73e
00000050: 7c8a 6dbf 4231 923f b017 73bf 7eb5 d23e
00000060: fadb 5ebf 0940 1c3f b6cd 203e ca86 353c
00000070: fb5b 95be ea53 393f d30b 153f a49f f03e
00000080: 61ac 21bf 0741 6f3e 129a 063f 9e5c 47bf
00000090: a620 7f3f efe5 893f 97f0 0abf 778e 2fbf
000000a0: a03a bebe 1dfd 583d 3604 393f c7a9 7c3f
000000b0: ca83 843f 9a8a 01bf cbd5 0fbf a1f1 713f
000000c0: fe76 063e 9eb3 8abe 8e68 86be 2c28 a33d
000000d0: 497e 48be 28db b1be 389c 5abe cdf8 923e
000000e0: b089 4fbe b327 96be 1db6 353f f66a 183d
000000f0: 61bf 71bf 13f8 8c3f c3d7 4fbd 6afe ac3f

l2.bias f4 [8]
0.27192217 0.37136632 0.055825084 -0.24568447 0.11365722 0.10865796 -0.30387974 0.19757213
00000000: 6239 8b3e ba23 be3e d8a8 643d b694 7bbe
00000010: 1ec5 e83d 1188 de3d 2096 9bbe 5950 4a3e

l3.weight f4 [7, 8]
-0.06343429 -1.5918629 0.2978829 0.55448437 0.6284649 -0.29686466 0.3304893 0.13399401
0.38936305 -0.7292324 -0.98368335 0.005989808 -1.3781687 0.4976136 0.34481218 -0.0691769
-0.18976316 0.48815802 -0.9871655 -2.402382 -0.6257068 0.09041662 0.11007723 -1.6287432
0.10132654 -0.7714434 1.051171 -1.2128587 -0.9401882 -0.4037452 -0.2672268 0.7290276
0.83025306 -1.3255163 -0.9215751 -1.9689012 0.31357402 0.3813961 0.14406666 -0.6840456
-1.7533681 0.8557679 -0.91828203 -0.42535383 -0.6904566 -2.074745 -0.30259767 -1.4019773
-1.2212487 -0.087022625 -0.2858923 1.3086045 0.10150773 -1.1832799 0.20513615 0.65414315
00000000: d6e9 81bd 2ac2 cbbf 1c84 983e b0f2 0d3f
00000010: 13e3 203f a5fe 97be e535 a93e ba35 093e
00000020: 985a c73e f9ae 3abf acd2 7bbf 2746 c43b
00000030: d567 b0bf 36c7 fe3e 398b b03e 9eac 8dbd
00000040: 4651 42be d9ef f93e e1b6 7cbf a0c0 19c0
00000050: 522e 20bf 592c b93d 2c70 e13d a87a d0bf
00000060: 4a84 cf3d 517d 45bf c58c 863f f43e 9bbf
00000070: 2db0 70bf b1b7 cebe f3d1 88be 8ea1 3a3f
00000080: 778b 543f 85aa a9bf 59ec 6bbf f404 fcbf
00000090: c68c a03e 5a46 c33e 3686 133e 9d1d 2fbf
000000a0: 5e6e e0bf 9b13 5b3f 8814 6bbf fac7 d9be
000000b0: c4c1 30bf 9fc8 04c0 15ee 9abe fe73 b3bf
000000c0: e151 9cbf eb38 b2bd 7a60 92be 5a80 a73f
000000d0: 49e3 cf3d b775 97bf 360f 523e ed75 273f

l3.bias f4 [7]
-0.4215861 -0.6613359 -0.57855207 -0.35087326 -0.33093318 0.69820553 -0.50753427
00000000: 22da d7be 4f4d 29bf fd1b 14bf a9a5 b3be
00000010: 1370 a9be 99bd 323f c4ed 01bf
